…
_predictions)\n","vgg_model.compile(loss='categorical_crossentropy',optimizer='adam',metrics=['accuracy'])\n","vgg_model.summary()"],"execution_count":27,"outputs":[{"output_type":"stream","text":["Model: \"model_6\"\n","_________________________________________________________________\n","Layer (type)                 Output Shape              Param #   \n","=================================================================\n","input_4 (InputLayer)         [(None, 64, 64, 3)]       0         \n","_________________________________________________________________\n","block1_conv1 (Conv2D)        (None, 64, 64, 64)        1792      \n","_________________________________________________________________\n","block1_conv2 (Conv2D)        (None, 64, 64, 64)        36928     \n","_________________________________________________________________\n","block1_pool (MaxPooling2D)   (None, 32, 32, 64)        0         \n","_________________________________________________________________\n","block2_conv1 (Conv2D)        (None, 32, 32, 128)       73856     \n","_________________________________________________________________\n","block2_conv2 (Conv2D)        (None, 32, 32, 128)       147584    \n","_________________________________________________________________\n","block2_pool (MaxPooling2D)   (None, 16, 16, 128)       0         \n","_________________________________________________________________\n","block3_conv1 (Conv2D)        (None, 16, 16, 256)       295168    \n","_________________________________________________________________\n","block3_conv2 (Conv2D)        (None, 16, 16, 256)       590080    \n","_________________________________________________________________\n","block3_conv3 (Conv2D)        (None, 16, 16, 256)       590080    \n","_________________________________________________________________\n","block3_pool (MaxPooling2D)   (None, 8, 8, 256)         0         \n","_________________________________________________________________\n","block4_conv1 (Conv2D)        (None, 8, 8, 512)         1180160   \n","_________________________________________________________________\n","block4_conv2 (Conv2D)        (None, 8, 8, 512)         2359808   \n","_________________________________________________________________\n","block4_conv3 (Conv2D)        (None, 8, 8, 512)         2359808   \n","_________________________________________________________________\n","block4_pool (MaxPooling2D)   (None, 4, 4, 512)         0         \n","_________________________________________________________________\n","block5_conv1 (Conv2D)        (None, 4, 4, 512)         2359808   \n","_________________________________________________________________\n","block5_conv2 (Conv2D)        (None, 4, 4, 512)         2359808   \n","_________________________________________________________________\n","block5_conv3 (Conv2D)        (None, 4, 4, 512)         2359808   \n","_________________________________________________________________\n","block5_pool (MaxPooling2D)   (None, 2, 2, 512)         0         \n","_________________________________________________________________\n","global_average_pooling2d_6 ( (None, 512)               0         \n","_________________________________________________________________\n","dense_6 (Dense)              (None, 120)               61560     \n","=================================================================\n","Total params: 14,776,248\n","Trainable params: 61,560\n","Non-trainable params: 14,714,688\n","_________________________________________________________________\n"],"name":"stdout"}]},{"cell_type":"code","metadata":{"id":"PPYtNrDR_KT2","colab_type":"code","colab":{"base_uri":"https://localhost:8080/","height":550},"out
…
dictions)\n","vgg19_model.compile(loss='categorical_crossentropy',optimizer='adam',metrics=['accuracy'])\n","vgg19_model.summary()"],"execution_count":36,"outputs":[{"output_type":"stream","text":["Model: \"model_8\"\n","_________________________________________________________________\n","Layer (type)                 Output Shape              Param #   \n","=================================================================\n","input_6 (InputLayer)         [(None, 224, 224, 3)]     0         \n","_________________________________________________________________\n","block1_conv1 (Conv2D)        (None, 224, 224, 64)      1792      \n","_________________________________________________________________\n","block1_conv2 (Conv2D)        (None, 224, 224, 64)      36928     \n","_________________________________________________________________\n","block1_pool (MaxPooling2D)   (None, 112, 112, 64)      0         \n","_________________________________________________________________\n","block2_conv1 (Conv2D)        (None, 112, 112, 128)     73856     \n","_________________________________________________________________\n","block2_conv2 (Conv2D)        (None, 112, 112, 128)     147584    \n","_________________________________________________________________\n","block2_pool (MaxPooling2D)   (None, 56, 56, 128)       0         \n","_________________________________________________________________\n","block3_conv1 (Conv2D)        (None, 56, 56, 256)       295168    \n","_________________________________________________________________\n","block3_conv2 (Conv2D)        (None, 56, 56, 256)       590080    \n","_________________________________________________________________\n","block3_conv3 (Conv2D)        (None, 56, 56, 256)       590080    \n","_________________________________________________________________\n","block3_conv4 (Conv2D)        (None, 56, 56, 256)       590080    \n","_________________________________________________________________\n","block3_pool (MaxPooling2D)   (None, 28, 28, 256)       0         \n","_________________________________________________________________\n","block4_conv1 (Conv2D)        (None, 28, 28, 512)       1180160   \n","_________________________________________________________________\n","block4_conv2 (Conv2D)        (None, 28, 28, 512)       2359808   \n","_________________________________________________________________\n","block4_conv3 (Conv2D)        (None, 28, 28, 512)       2359808   \n","_________________________________________________________________\n","block4_conv4 (Conv2D)        (None, 28, 28, 512)       2359808   \n","_________________________________________________________________\n","block4_pool (MaxPooling2D)   (None, 14, 14, 512)       0         \n","_________________________________________________________________\n","block5_conv1 (Conv2D)        (None, 14, 14, 512)       2359808   \n","_________________________________________________________________\n","block5_conv2 (Conv2D)        (None, 14, 14, 512)       2359808   \n","_________________________________________________________________\n","block5_conv3 (Conv2D)        (None, 14, 14, 512)       2359808   \n","_________________________________________________________________\n","block5_conv4 (Conv2D)        (None, 14, 14, 512)       2359808   \n","_________________________________________________________________\n","block5_pool (MaxPooling2D)   (None, 7, 7, 512)         0         \n","_________________________________________________________________\n","global_average_pooling2d_8 ( (None, 512)               0         \n","_________________________________________________________________\n","dense_8 (Dense)              (None, 128)               65664     \n","_________________________________________________________________\n","dense_9 (Dense)              (None, 120)               15480     \n","=================================================================\n","Total params: 20,105,528\n","Trainable params: 20,105,528\n","Non-trainable params: 0\n","_________________________________________________________________\n"],"name":"stdout"}]},{"cell_type":"code","metadata":{"colab_type":"code","id":"ox48mD6iMmY3","colab":{"base_uri":"https://localhost:8080/","height":388},"outputId
…
